models/SRCNN_3x.pt (torch_old, 36674 bytes, 5 tensors)

conv1.weight f4 [64, 1, 9, 9]
0	0x3c15652e	0.009118361
1	0x3cc837db	0.024440696
2	0x3b319c2a	0.0027101138
3	0x3c2c6f91	0.010524646
4	0xbcf49901	-0.029858114
5	0xbbe4c3c5	-0.0069813454
6	0x3d9bd360	0.07608676
7	0xbc19bcb5	-0.00938337
8	0x3bcb6611	0.0062072356
9	0x3c5013af	0.012700005
10	0xbc9e3b38	-0.019315347
11	0xbc96bc87	-0.018400444
12	0x3d0bcc4c	0.03413038
13	0xbcb65023	-0.022255009
14	0x38b5b174	8.663806e-05
15	0x3bca3a13	0.006171474
16	0xbdc5aa65	-0.09651641
17	0x3cbdf18c	0.023186468
18	0xbb29d5f2	-0.0025914875
19	0xbce617d3	-0.028087532
20	0x3c3ca4ec	0.01151393
21	0x3d4e0f6e	0.050307684
22	0x3d0d5d26	0.03451266
23	0x3d90a88d	0.070633985
24	0x3d20ca0f	0.039255198
25	0xbdae0580	-0.08497143
26	0x3ccd8f9a	0.025092889
27	0xbccf30b6	-0.025291782
28	0xbb8bd220	-0.004266992
29	0x3bd6530a	0.0065406607
30	0xbd3a83ed	-0.04553597
31	0xbdb7087a	-0.08937164
32	0x3d4eaf9b	0.05046044
33	0x3d77616f	0.060395654
34	0xbd9bed85	-0.07613663
35	0xbbcded6e	-0.0062844073
36	0xbc0da3c6	-0.008645004
37	0x3d0fc250	0.03509742
38	0x3d861c27	0.065483384
39	0xbc1d07f4	-0.009584416
40	0xbdf80d78	-0.12111944
41	0x3dd9be50	0.10632002
42	0x3d996272	0.0748948
43	0xbe063037	-0.1310433
44	0xbd9acd15	-0.075586475
45	0xbcd985a6	-0.026552986
46	0xba83d1af	-0.0010056997
47	0x3c3d3a43	0.011549535
48	0xbd2705e6	-0.04077711
49	0xbda7fe03	-0.08202746
50	0x3d410a66	0.047129057
51	0x3daeb85d	0.08531258
52	0xbd65a505	-0.056065578
53	0x3c7f1230	0.015568301
54	0xbc9b2f07	-0.018943323
55	0xbcc867c9	-0.024463551
56	0x3cf8b15c	0.030358009
57	0x3d5b44c5	0.05353238
58	0x3d203c36	0.03911992
59	0x3d4f341a	0.050586797
60	0x3d453439	0.048145507
61	0xbdc5d876	-0.09660427
62	0x3bde1d57	0.0067784
63	0x3c76f1f7	0.015072337
64	0xbcadb07b	-0.021202317
65	0xbc5f4e46	-0.013629502
66	0x3c6e3524	0.014539037
67	0xbc9b5fbe	-0.018966552
68	0xbc01865f	-0.007905572
69	0x3ce54f9a	0.027992059
70	0xbd74a920	-0.059731603
71	0x3caced70	0.021109313
72	0xbb511bbc	-0.00319074
73	0x3caa3239	0.020775901
74	0x3c833889	0.016018169
75	0x3c3a0a49	0.011354991
76	0xbcf0fa4b	-0.029416224
77	0xbcf1a16e	-0.029495921
78	0x3d32f638	0.043691844
79	0xbc1819ac	-0.009283464
80	0xbbac4bb3	-0.0052580475
81	0xbbf92b0a	-0.0076040076
82	0x3c98f614	0.018672027
83	0x3ba93d27	0.0051647606
84	0x3c5b87b2	0.0133990515
85	0xbd814f8d	-0.06314001
86	0x3b8ef68c	0.004362887
87	0x3c1ae808	0.009454735
88	0x3cd84240	0.026398778
89	0xbc7781bd	-0.015106616
90	0x3d00ddeb	0.031461637
91	0x3d0c7ee6	0.034300707
92	0x3c070e8d	0.008243215
93	0xbd0f488c	-0.034981295
94	0xbdc04564	-0.09388235
95	0xbd2046fe	-0.039130203
96	0xbb81cb39	-0.0039609936
97	0x3d410c5b	0.047130924
98	0x3d0b9d1c	0.034085378
99	0xbc16db39	-0.00920754
100	0xbc739bb0	-0.014868662
101	0x3cc1c62e	0.02365407
102	0x39c2cf08	0.00037156814
103	0x39fcc7f0	0.0004821415
104	0xbc514d3f	-0.012774765
105	0xbbf9af8a	-0.007619803
106	0xbcf57812	-0.02996448
107	0xbc5af07f	-0.013363003
108	0xbc4159e7	-0.01180122
109	0xbd5bd8ae	-0.05367344
110	0x3c47d49c	0.012196686
111	0xbc9ded92	-0.019278321
112	0x3db66609	0.089061804
113	0xbbb930b9	-0.00565156
114	0x3a0c06f2	0.0005341611
115	0xbcacd428	-0.021097258
116	0x3c50c673	0.0127426265
117	0xbd97b45c	-0.07407448
118	0xbdc21cdd	-0.094781615
119	0x3c459bc4	0.012061063
120	0x3d338467	0.04382744
121	0x3edf0ff1	0.4356685
122	0x3d85ae61	0.06527401
123	0xbbe57e35	-0.0070035704
124	0xbd6bfbee	-0.057613306
125	0xbd8b0170	-0.067873836
126	0x3cd7a1dd	0.0263223
127	0xbd0cd6c7	-0.034384515
128	0x3cddea13	0.027089154
129	0x3b4e6a1e	0.0031496356
130	0x3dc4c2de	0.096074805
131	0xbc685447	-0.01418025
132	0xbc47a451	-0.012185172
133	0xbc39fc6c	-0.011351686
134	0x3bca7678	0.0061786734
135	0x3bed9f18	0.0072516315
136	0xbcd1c86e	-0.025608268
137	0xbbb7ed6c	-0.0056130197
138	0xbcf1755f	-0.029474912
139	0xbca89e01	-0.020583155
140	0xbc931563	-0.017954534
141	0xba258e16	-0.0006315423
142	0x3c3d5d22	0.011557849
143	0xbc166de6	-0.009181475
144	0x3d4dc412	0.050235815
145	0x3d914df6	0.07094948
146	0xbc3472d7	-0.011013708
147	0xbd441b1a	-0.04787741
148	0xbda6fc2f	-0.08153569
149	0xbc89a6db	-0.016803196
150	0x3c75aa78	0.014994256
151	0x3d71213d	0.05886959
152	0x3d1074f6	0.035267793
153	0xbcf8b1a5	-0.030358145
154	0x3d0c1329	0.03419796
155	0xbcb7c247	-0.022431506
156	0x3b1213d0	0.0022289641
157	0xbd647fb8	-0.055785865
158	0x3c2a5ea2	0.010398539
159	0xbb46ac5d	-0.003031514
160	0x3b570169	0.0032807237
161	0xbd055cdf	-0.032559272
162	0x3b867c0e	0.004104144
163	0x3ba912ea	0.0051597254
164	0xbc1bd48c	-0.009511124
165	0x3cfc4dc6	0.030798804
166	0x3b4e77cf	0.0031504517
167	0xbcd7f3c2	-0.02636135
168	0x3c9a9aac	0.018872581
169	0x3cb364c3	0.021898633
170	0x3aea5590	0.0017878283
171	0x3cd1510a	0.025551338
172	0xbc673cd7	-0.014113626
173	0xbd248476	-0.040165387
174	0xbc407732	-0.011747168
175	0xbcb4bc90	-0.02206257
176	0xbd4e6cc9	-0.050396714
177	0xbaf3bbba	-0.0018595376
178	0xbaff5c1d	-0.0019482408
179	0xbd196457	-0.037449207
180	0x3ca78eb6	0.020453792
181	0xbd08c65b	-0.03339229
182	0xbceba757	-0.028766317
183	0x3cbe05a4	0.023196049
184	0x3cd6da0b	0.026227018
185	0xbcbfb725	-0.02340276
186	0x3ca8efc6	0.020622145
187	0x3bd1a2c2	0.006397576
188	0xbcd5b34c	-0.026086472
189	0x3d25e273	0.040499162
190	0xbc96128e	-0.018319394
191	0x3c601f67	0.013679362
192	0x3d78418e	0.060609393
193	0x3d84611c	0.06463835
194	0xbc4cef55	-0.012508233
195	0x3d14b452	0.03630478
196	0x3cb073eb	0.021539649
197	0xbc691365	-0.014225815
198	0xbc072156	-0.008247694
199	0xbd1c78b2	-0.03820104
200	0x3c74435b	0.014908637
201	0x3d808f19	0.06277294
202	0x3dfbc509	0.12293441
203	0xbd0736d5	-0.033011276
204	0x3d37330f	0.044726428
205	0x3d27f161	0.04100168
206	0xbbab92e5	-0.005236017
207	0xbbad1df9	-0.005283114
208	0xbcf9c4b4	-0.030489303
209	0x3c86174d	0.016368533
210	0x3d08de6c	0.033415243
211	0x3ba4597f	0.0050155516
212	0xbdad5ed7	-0.08465355
213	0xbb23247b	-0.002489357
214	0x3c1a8234	0.009430457
215	0xbc920601	-0.017825129
216	0xbc35a983	-0.011087778
217	0xbc976a3a	-0.01848327
218	0x3c882a10	0.01662162
219	0x3d2ca167	0.042146113
220	0x3d117b1a	0.03551779
221	0xbcbc274f	-0.022967963
222	0x3d13638b	0.035983603
223	0x3cf219db	0.029553344
224	0xbadbb090	-0.0016760994
225	0xbbfcc6a4	-0.0077141095
226	0xbc991a7d	-0.018689388
227	0xbc9dde47	-0.01927103
228	0x3c2e1947	0.010626144
229	0x3d138865	0.036018748
230	0x3c03f92e	0.008055015
231	0x3d5da54a	0.05411271
232	0x3d2649b8	0.040597647
233	0x3c2b12db	0.010441507
234	0x3ceabaa8	0.028653458
235	0xbbabcda9	-0.0052430225
236	0xbd0eac06	-0.034832023
237	0xbb9a2c3c	-0.00470498
238	0x3c289e7c	0.010291692
239	0xbc0893d6	-0.008336028
240	0x3d03203c	0.032013163
241	0x3cbeadcb	0.02327623
242	0xba8dae25	-0.0010809345
243	0xbd023236	-0.031786166
244	0x3a13385f	0.0005616005
245	0xbc63f88c	-0.013914239
246	0xbd3b9a10	-0.045801222
247	0xbcc52b8a	-0.024068613
248	0xbab1a113	-0.0013552032
249	0xbd2e88fb	-0.042611104
250	0x3d3a2f0b	0.04545502
251	0x3c7153f0	0.014729485
252	0xbc3ca516	-0.011513969
253	0x3cdfcf8f	0.027320651
254	0x3c775112	0.015095012
255	0x3b88557d	0.0041605816

conv1.bias f4 [64]
0	0x3dfe4e92	0.1241733
1	0x3e8cde3d	0.27513304
2	0x3df70b6b	0.12062725
3	0x3e11bbdd	0.1423182
4	0xbdaf306d	-0.08554158
5	0xbe4c0464	-0.1992355
6	0xbe276162	-0.16345742
7	0x3e15bcd0	0.14622808
8	0x3e27685d	0.16348405
9	0x3da0a741	0.07844401
10	0x3e13224d	0.14368553
11	0x3e32990c	0.17441195
12	0x3ddff125	0.109346665
13	0xbdf505e5	-0.11964015
14	0x3d38d345	0.045123357
15	0x3d41d0a5	0.04731812
16	0x3e0df4b9	0.13862886
17	0x3e1d33f2	0.15351847
18	0xbdffce44	-0.12490514
19	0x3d52331c	0.051318273
20	0xbdb706da	-0.08936854
21	0x3ea59878	0.32342887
22	0x3ddeca2c	0.10878405
23	0xbd5bba1c	-0.053644285
24	0x3dae3628	0.08506423
25	0xbdf8cff7	-0.12149041
26	0x3d9af81e	0.07566856
27	0x3d838e76	0.06423657
28	0x3dd7fbf9	0.10546107
29	0xbddd8df3	-0.1081809
30	0x3d9bbdd5	0.07604567
31	0x3debd75a	0.115156844
32	0xbe1f1698	-0.15535963
33	0xbdf4c254	-0.11951128
34	0x3e71c790	0.23611283
35	0xbdeb5daf	-0.11492478
36	0xbd9c86c3	-0.07642891
37	0x3e51eedc	0.20501274
38	0xbdc40a34	-0.095722586
39	0x3e7fdf27	0.2498747
40	0xbd2669e1	-0.040628318
41	0x3c248a79	0.01004278
42	0x3d8c6f21	0.06857134
43	0x3e39def9	0.18151464
44	0x3e155dfd	0.14586635
45	0xbd9f4f84	-0.07778838
46	0x3dbe3806	0.092880294
47	0xbe57e6d9	-0.21084155
48	0x3d831f13	0.06402411
49	0xbe355b6f	-0.1771066
50	0x3dcf6a59	0.10127706
51	0x3dd03869	0.101670094
52	0x3dc68057	0.09692448
53	0x3e268192	0.16260365
54	0x3e9c2cbb	0.30502877
55	0x3db85d0e	0.09002124
56	0xbdb27b5e	-0.08714937
57	0x3e6af198	0.22943723
58	0x3e07e80d	0.13272114
59	0x3dd121f5	0.10211555
60	0x3e4759f2	0.19467905
61	0x3e1e8d91	0.15483691
62	0x3e311e85	0.17296799
63	0x3e094fca	0.13409343

conv2.weight f4 [32, 64, 1, 1]
0	0x3ba3380f	0.004981048
1	0xbb1ddbd5	-0.002408733
2	0xbb81b483	-0.0039582863
3	0xbbd409e0	-0.0064709038
4	0x3c1231fe	0.008923052
5	0xbc45988f	-0.012060299
6	0x3b9ee45b	0.0048489994
7	0xbbb364a9	-0.005474646
8	0x3b8a90c9	0.0042286855
9	0xba66878e	-0.0008794003
10	0x3bd7dd02	0.0065876255
11	0xbbab2312	-0.0052226866
12	0x3ba24ec2	0.0049532363
13	0x391ae94e	0.00014773497
14	0xbb3ef31e	-0.0029136608
15	0xbc1b0b3f	-0.0094631305
16	0x38a03e2c	7.640975e-05
17	0xbb10eb8e	-0.0022113058
18	0xba5aa942	-0.00083412614
19	0x3b1e76bb	0.0024179656
20	0x3ae5e4a0	0.0017539449
21	0x3bdc3678	0.0067203604
22	0xba3b80ef	-0.00071526965
23	0x3ae896ea	0.0017745171
24	0x3b5a0784	0.003326864
25	0xb9ebc510	-0.00044969516
26	0x3c03a609	0.008035191
27	0xbb3f584f	-0.0029196923
28	0x3baca00e	0.0052681034
29	0xbc30486b	-0.010759453
30	0xbb9f43cc	-0.004860377
31	0xbb5cae15	-0.0033673097
32	0xbb670dc4	-0.0035256008
33	0xbbb1839d	-0.005417301
34	0xbad80e1f	-0.0016483701
35	0x3b70e697	0.0036758536
36	0xbb2f34c0	-0.0026734322
37	0x3b9bdefb	0.004756806
38	0xbbc3e352	-0.0059780264
39	0xbb8e8152	-0.0043489123
40	0xbbf04abf	-0.007333129
41	0x39a505a1	0.00031475446
42	0xba07a493	-0.0005174365
43	0xbb48e6f0	-0.0030655228
44	0x3b7be7fe	0.0038437839
45	0xbb168831	-0.002296936
46	0x3be4713b	0.006971506
47	0xba8029c6	-0.0009778074
48	0xbb3b3c40	-0.0028569847
49	0xbb324dbd	-0.002720698
50	0x3b997184	0.0046827216
51	0x37b288b4	2.128291e-05
52	0xbb247b67	-0.0025097968
53	0x3bf7fac1	0.007567734
54	0xbaacf221	-0.0013194719
55	0xbb668893	-0.003517662
56	0xbaa2be24	-0.0012416285
57	0x3c851995	0.01624755
58	0x3b178476	0.0023119724
59	0xbbd9717e	-0.006635844
60	0x3be86edd	0.007093294
61	0x3a07ff7a	0.000518791
62	0xba07cd7d	-0.00051804614
63	0xbb8e8f1a	-0.004350555
64	0xbdc52f17	-0.09628122
65	0x3e825fa2	0.25463587
66	0x3de7c45b	0.11316749
67	0x3e7d5df2	0.24742869
68	0x3e961dd7	0.2931964
69	0xbdc6443f	-0.09680986
70	0xbe16051a	-0.14650384
71	0x3e3d847f	0.18507574
72	0x3e198be3	0.14994769
73	0x3e6aadfe	0.22917935
74	0x3ea549cb	0.32282862
75	0xbd803b16	-0.0626127
76	0xbe071622	-0.13192037
77	0x3db63705	0.08897213
78	0x3d11afc6	0.03556802
79	0x3dbff38c	0.09372625
80	0x3dcc0e34	0.099636465
81	0x3e87aa8a	0.26497298
82	0x3daeeaa0	0.08540845
83	0xbd7dcd4e	-0.061963372
84	0xbd50476a	-0.050849356
85	0x3e65fe51	0.22460295
86	0x3e534070	0.2063005
87	0x3e2b3d3a	0.16722575
88	0xbdbe24e1	-0.09284378
89	0x3da20119	0.079103656
90	0xbd5e8bd3	-0.054332566
91	0xbe38f7d4	-0.18063289
92	0xbe08fb80	-0.1337719
93	0xbd067610	-0.032827437
94	0xbdb583fe	-0.08863066
95	0x3de4fed0	0.11181414
96	0xbde6a14b	-0.11261233
97	0xbe230abd	-0.15922065
98	0xbdfda8a8	-0.12385684
99	0xbe10e8f9	-0.14151372
100	0x3e931d0b	0.28733096
101	0xbdb9d6db	-0.090741836
102	0xbd650b45	-0.05591895
103	0xbdb447a1	-0.08802725
104	0xbde0e56f	-0.10981261
105	0xbbc08dbc	-0.005876271
106	0xbe362291	-0.17786624
107	0xbe780da0	-0.24223948
108	0xbddecb12	-0.10878576
109	0xbdce40c1	-0.100709446
110	0xbda629b9	-0.08113427
111	0xbe3b9195	-0.18317254
112	0xbe0d6994	-0.13809806
113	0x3d7cc6d8	0.06171307
114	0xbe2854e8	-0.16438639
115	0x3da41ec4	0.080136806
116	0xbd9e1c29	-0.07720215
117	0x3e19715d	0.14984651
118	0x3e4c4e60	0.19951773
119	0x3e16b12f	0.14716028
120	0xbdefb9c1	-0.117053516
121	0x3e88291d	0.26593867
122	0xbdc8dc95	-0.09807698
123	0x3e3566b8	0.17714965
124	0xbe6f959a	-0.23396912
125	0xbd010f79	-0.031508896
126	0x3e6bf5f8	0.23043048
127	0x3d576ef5	0.05259605
128	0xbcca3581	-0.024683716
129	0x3cac7197	0.021050258
130	0x3cca8349	0.024720805
131	0x3cb57aef	0.022153346
132	0x3d2c1ae8	0.042017847
133	0x3c93d094	0.018043794
134	0x3ce02dae	0.027365532
135	0xbae7531e	-0.0017648672
136	0x3d3a6c12	0.04551322
137	0x3d3e22b6	0.04641982
138	0xbbf7281d	-0.0075426237
139	0x3ce104c3	0.02746809
140	0xbbc42697	-0.0059860456
141	0x3a929b70	0.001118524
142	0x3bf475af	0.007460318
143	0x3ce6fdc9	0.028197186
144	0x3d0678c1	0.032830004
145	0xbcdcad48	-0.026938096
146	0x3b7f25d3	0.0038932457
147	0x3c769fb8	0.015052728
148	0x3bb639cb	0.0055610887
149	0xbd001260	-0.031267524
150	0xbd3c0f84	-0.045913234
151	0x3c10baac	0.008833569
152	0xbd1125ba	-0.03543637
153	0xbc0ce442	-0.008599343
154	0xbcd458fa	-0.025921334
155	0xbc9e27af	-0.019306032
156	0x3c681ab0	0.014166519
157	0x3c15116b	0.009098391
158	0xbcc1b23a	-0.023644555
159	0x3b9e5b2b	0.0048326454
160	0x3cd516f3	0.02601192
161	0xbac56c83	-0.0015062246
162	0xbc7c8d28	-0.015414514
163	0xbc0f7924	-0.0087569095
164	0x3a58c873	0.00082696154
165	0x3cc1ba50	0.023648411
166	0xbba92274	-0.005161578
167	0xbc33c251	-0.010971622
168	0xbd698fe8	-0.057022005
169	0xbbe77c9f	-0.0070644165
170	0xbc205eaa	-0.009788195
171	0xbc92d6ee	-0.017924752
172	0x3c202ea8	0.009776749
173	0xbd0a2b22	-0.03373254
174	0x3cbcc72c	0.023044191
175	0x3bc2f006	0.005949023
176	0xbc8316b4	-0.016002037
177	0xbb9929f9	-0.004674193
178	0x3da1b6bc	0.07896182
179	0x3caee681	0.021350147
180	0xbac39b9c	-0.0014923695
181	0xbbdd974e	-0.0067624217
182	0x3d6337d5	0.055473167
183	0x3c949133	0.018135643
184	0xbbaeca1a	-0.005334151
185	0x3d2c8ecd	0.042128373
186	0xbc04bb85	-0.008101349
187	0x3c7259d6	0.014791926
188	0x3cd4d1b1	0.025978895
189	0x3cf12883	0.029438263
190	0x3be5ac9f	0.0070091034
191	0x3c394020	0.0113067925
192	0x3d34f201	0.044176105
193	0x3c436fc7	0.011928505
194	0xbcdd3e05	-0.027007112
195	0xbc08092b	-0.008302967
196	0x3d5fb790	0.05461842
197	0x3d4bef30	0.049788654
198	0x3d6ac763	0.057319056
199	0x3d3ed036	0.046585284
200	0x3ca0a95b	0.019612005
201	0xbd4ee5e3	-0.050512206
202	0x3c449783	0.011999014
203	0x3c7e2fd2	0.015514331
204	0x3d5032ac	0.050829574
205	0xbd21933e	-0.03944706
206	0x3c1a0008	0.0093994215
207	0x3c800aa8	0.015630081
208	0x3c1f86bf	0.009736716
209	0xbcdf0f2a	-0.02722891
210	0xbd2197dc	-0.039451465
211	0x3d27c681	0.040960792
212	0x3d64f29f	0.055895444
213	0xbba7f009	-0.00512505
214	0xbb95b41c	-0.00456859
215	0x3cdb537a	0.026773203
216	0x3dce0de7	0.100612454
217	0x3cc8ecaa	0.024526913
218	0x3d588526	0.052861355
219	0xbc21b65a	-0.009870136
220	0x3d3c8617	0.046026316
221	0x3ca23739	0.019801723
222	0xbcf1e469	-0.02952786
223	0xbd96c02c	-0.073608726
224	0x3c89607b	0.016769638
225	0x3ce36a83	0.02776075
226	0x3d6a985d	0.05727421
227	0x3d854b78	0.06508535
228	0x3d9459e1	0.072437055
229	0x3cdb8339	0.02679597
230	0x3b866008	0.0041008033
231	0xbcdc2ca4	-0.026876755
232	0x3b16bdee	0.002300139
233	0xbcae0e68	-0.021247104
234	0x3d02c79b	0.03192864
235	0x3cf7295e	0.030171093
236	0x3d96eb91	0.073691495
237	0x3d303c47	0.043026235
238	0x3db339c3	0.087512515
239	0xba97a866	-0.0011570572
240	0xbc0e3acc	-0.00868101
241	0x3d78b74e	0.060721688
242	0x3d085387	0.033282783
243	0xbd3ce86b	-0.04612009
244	0xbc941c47	-0.01807989
245	0xbd49f969	-0.04931012
246	0xbb1c8b3a	-0.0023886696
247	0xbc9c6fbb	-0.019096246
248	0x3d46a9ef	0.048501905
249	0xbc84271c	-0.01613193
250	0x3dca278c	0.09870824
251	0x3ca5957a	0.020212878
252	0x3c2da523	0.010598454
253	0x3cce93b8	0.025216922
254	0xbc22ba21	-0.009932072
255	0xbd0b6117	-0.03402814

conv2.bias f4 [32]
0	0x3b59ff6d	0.0033263818
1	0x3c91f492	0.017816816
2	0x3baf3558	0.0053469352
3	0x3d07ee25	0.033186097
4	0x3d5647cd	0.05231457
5	0x3c9c1c4f	0.019056467
6	0x3d17224d	0.036897946
7	0x3e2bc31c	0.16773647
8	0x3cb75bb5	0.022382597
9	0x3d7bcf45	0.061476965
10	0x3f45922e	0.7717618
11	0x3e4288b1	0.18997456
12	0xbc0ae4cd	-0.008477402
13	0x3da92925	0.08259801
14	0x3b143ded	0.0022619918
15	0x3dd0671b	0.10175916
16	0x3b50e7e4	0.0031876499
17	0x3c4e766a	0.012601474
18	0x3d55e33d	0.052218664
19	0xbccce1e4	-0.025010057
20	0xbaa137b9	-0.0012299932
21	0x3dc5131d	0.09622786
22	0x3d8db090	0.06918442
23	0x3d0955aa	0.03352896
24	0x3a346a1d	0.0006882267
25	0xbd0df482	-0.03465701
26	0x3cdd6cb6	0.027029376
27	0xbcf86450	-0.03032127
28	0x3ec80546	0.39066523
29	0xbd5b596b	-0.053552072
30	0xbae863f5	-0.0017729985
31	0x3d223243	0.039598715

conv3.weight f4 [1, 32, 7, 7]
0	0xba069daa	-0.0005135188
1	0xbae4c15b	-0.0017452644
2	0xb9102aea	-0.00013748897
3	0xbadfeb54	-0.0017083683
4	0x3a2a1c94	0.0006489244
5	0xbaca7776	-0.0015446979
6	0xbac261a1	-0.0014830121
7	0xbb44190b	-0.0029922153
8	0xbb0c1ebe	-0.0021380628
9	0xbabd3eaf	-0.0014438237
10	0xbb718935	-0.0036855463
11	0xbb1a1314	-0.0023509907
12	0xbab5391a	-0.0013826222
13	0xba866a5a	-0.0010255084
14	0xbb3be55a	-0.002867064
15	0xbb161f4c	-0.0022906838
16	0xbac303d2	-0.0014878458
17	0xbaf1ed66	-0.0018457591
18	0xbab1faf4	-0.0013578818
19	0xbb06183a	-0.0020461218
20	0x3a9d3668	0.0011994364
21	0xbb401250	-0.002930779
22	0xbb2ae953	-0.0026079013
23	0xbaee8877	-0.0018198629
24	0x3a939b51	0.0011261498
25	0xbb2ffd31	-0.0026853795
26	0xbba6a449	-0.0050855023
27	0x3ab9672b	0.0014145126
28	0xbb3e003e	-0.0028991844
29	0xba4d2c2d	-0.0007826712
30	0xba86e182	-0.0010290595
31	0xbaac6c13	-0.0013154767
32	0xb9885ece	-0.00026010576
33	0xb9916293	-0.0002773
34	0x39c8539a	0.0003820926
35	0xbac6bce0	-0.001516249
36	0x38c947e3	9.597817e-05
37	0x38f05eca	0.000114617476
38	0xba86222d	-0.0010233574
39	0xbb42c341	-0.0029718431
40	0xbb02007b	-0.0019836712
41	0x397b3cd8	0.00023959891
42	0xbb461280	-0.003022343
43	0xbb366b42	-0.0027834927
44	0xba76db4e	-0.0009416834
45	0xbabb5fd3	-0.0014295526
46	0xbb4571f7	-0.0030127743
47	0xbb46b651	-0.0030321071
48	0xbaecdc1a	-0.0018070966
49	0xbc8494e5	-0.01618428
50	0xbd53509d	-0.05159055
51	0xbda3a8dc	-0.07991192
52	0xbdeabe5b	-0.11462089
53	0xbd958413	-0.07300582
54	0xbd1f4d7f	-0.038892265
55	0x3b574071	0.0032844807
56	0xbd387ed5	-0.04504283
57	0xbd3767bd	-0.044776667
58	0xbd2b2cfe	-0.041790955
59	0xbd946cba	-0.072473004
60	0xbce11098	-0.027473733
61	0xbd0c9088	-0.034317523
62	0xbd0eeb4a	-0.034892358
63	0xbd6efe11	-0.058347765
64	0xbcf0baf6	-0.029386025
65	0x3d0f15d3	0.034932923
66	0x3d532fd6	0.05155929
67	0x3d56bf7f	0.05242872
68	0xbd0a4e3f	-0.033766028
69	0xbd80ec27	-0.062950425
70	0xbd998432	-0.074959174
71	0xbd60436b	-0.054751795
72	0x3d1b228c	0.037874743
73	0x3e179105	0.14801414
74	0x3d679c75	0.056545693
75	0xbda0e4d8	-0.078561485
76	0xbdd72e52	-0.10506882
77	0xbd43d555	-0.04781087
78	0xbcb6d87c	-0.022320025
79	0x3d47d86e	0.048790388
80	0x3d711774	0.058860257
81	0x3d2001ee	0.03906434
82	0xbd69e4fe	-0.05710315
83	0xbdadbe1a	-0.084835246
84	0xbcfa4eb0	-0.0305551
85	0xbceed2fe	-0.029153343
86	0xbcb98c6e	-0.02264997
87	0xbd1f82d7	-0.038943138
88	0xbca7a1a7	-0.020462824
89	0xbd51ac70	-0.05118984
90	0xbd75606d	-0.059906412
91	0xbb97af6b	-0.0046290657
92	0xbcfbcaac	-0.03073629
93	0xbd3251dc	-0.0435351
94	0xbd92c90b	-0.07167252
95	0xbd3c25dc	-0.045934543
96	0xbd17aa82	-0.037027843
97	0xbc5ce87b	-0.013483162
98	0xbb2bf206	-0.0026236787
99	0xbc08ca62	-0.008349033
100	0xbbe558de	-0.006999119
101	0xbbb10155	-0.00540177
102	0xbc10caeb	-0.008837442
103	0xbc123aad	-0.008925122
104	0xbc00e631	-0.007867382
105	0xbc4c505f	-0.012470334
106	0xbc4ce86e	-0.012506587
107	0xbc200d00	-0.009768724
108	0xbbc7af59	-0.006093901
109	0xbbb575b2	-0.005537712
110	0xbc08c305	-0.0083472775
111	0xbbdab564	-0.0066744555
112	0xbc3afae3	-0.011412355
113	0xbc6165ba	-0.013757164
114	0xbbfa6307	-0.0076411995
115	0xbbcbf266	-0.0062239645
116	0xbbb3e49c	-0.005489899
117	0xbb5232e6	-0.0032073795
118	0x3b0a265b	0.002107999
119	0xbc62a319	-0.013832831
120	0xbc9dbdc5	-0.019255528
121	0xbc264204	-0.010147575
122	0xbb52b254	-0.003214975
123	0xbbe7d608	-0.007075075
124	0x3b1be7d0	0.0023789294
125	0x3bff524d	0.0077917934
126	0xbc3aae6a	-0.011394123
127	0xbc8c5623	-0.017130917
128	0xbc25e704	-0.010125879
129	0xbbddd274	-0.0067694727
130	0xbc382724	-0.011239801
131	0x390c768a	0.000133956
132	0x3bb6dbff	0.005580425
133	0xbc4c055a	-0.012452448
134	0xbc8a327e	-0.01686978
135	0xbc58144c	-0.013188433
136	0xbbd78a3f	-0.0065777595
137	0xbbcd9aa3	-0.0062745376
138	0xb9011e25	-0.00012313628
139	0x3a6b6ae4	0.00089804665
140	0xbbbbbef5	-0.005729551
141	0xbc74d21a	-0.01494267
142	0xbc3373c5	-0.010952895
143	0xbc02cfde	-0.00798413
144	0xbb8b5da0	-0.0042531043
145	0xba62522f	-0.0008633462
146	0xbbb4f146	-0.005521926
147	0xbac91f31	-0.0015344379
148	0x3bf095c4	0.007342072
149	0x3c3af4dd	0.011410919
150	0xb9b35e51	-0.00034211812
151	0x3bf9da99	0.007624936
152	0x3ba5d85e	0.0050611934
153	0x3acd09cd	0.001564318
154	0x3b624e67	0.0034531595
155	0x3c746401	0.014916421
156	0x3c2d13b5	0.010563781
157	0xbb93995a	-0.004504365
158	0x3b87c811	0.004143723
159	0xba85397e	-0.0010164229
160	0xbbcf06be	-0.0063179424
161	0x3bb2eae9	0.0054601324
162	0x3bdc2408	0.0067181624
163	0xbc1f9a29	-0.0097413445
164	0xbd05c89d	-0.032662023
165	0xbc38a497	-0.01126971
166	0xbc0875ed	-0.008328897
167	0xbc39d063	-0.011341187
168	0x3a930b6b	0.0011218613
169	0xbc04a21d	-0.008095291
170	0xbd03b4e0	-0.032154918
171	0xbd797dfb	-0.06091116
172	0xbcd9dc27	-0.026594235
173	0xbcb86763	-0.022510236
174	0xbc871e33	-0.016493892
175	0x3bc89a99	0.006121945
176	0x3bc42e99	0.005987
177	0xbbbad53e	-0.00570169
178	0xbce4070c	-0.027835391
179	0xbc51a370	-0.012795314
180	0xbc3b5f95	-0.011436363
181	0xbc0e7a49	-0.008696147
182	0x3bee29d1	0.0072681685
183	0x3bf90a8e	0.007600135
184	0x3b67821a	0.003532535
185	0xbcaeb266	-0.021325301
186	0xbb9fbff6	-0.0048751784
187	0xbbda9cfd	-0.0066715465
188	0xbbdbcbfd	-0.006707667
189	0x3c1ee648	0.009698458
190	0x3bd59109	0.0065175337
191	0x3b3bbeac	0.0028647585
192	0xbc93992c	-0.018017374
193	0xbbe022e3	-0.0068400963
194	0xbc16c55c	-0.009202328
195	0xbb222498	-0.002474105
196	0xbb441801	-0.0029921534
197	0xbbaaa32d	-0.0052074404
198	0xbbf73b58	-0.007544916
199	0xbc0417a9	-0.008062282
200	0xbbd70b07	-0.006562594
201	0xbb5ceabf	-0.0033709256
202	0xbb844291	-0.0040362556
203	0xbbb1396b	-0.005408456
204	0xbb88185c	-0.0041532945
205	0xbb01d6f8	-0.001981197
206	0xba0aa5c1	-0.00052889815
207	0xbacea2b2	-0.001576504
208	0xbb4e6fbe	-0.003149971
209	0xbb6174f3	-0.0034401983
210	0xbb89b590	-0.004202552
211	0xba86b664	-0.0010277745
212	0x3ae2c8d4	0.0017302283
213	0x3ace0f21	0.0015721061
214	0x3b748b28	0.003731439
215	0x3b2ad05f	0.002606414
216	0xbb6c226e	-0.0036031264
217	0xbc08854a	-0.00833256
218	0xbba56cb8	-0.0050483607
219	0xbb99b1aa	-0.0046903687
220	0xbbbe7a56	-0.0058129234
221	0x39affb00	0.0003356561
222	0x3b07730d	0.002066794
223	0xbb42bb2f	-0.002971362
224	0xbbf300bf	-0.0074158604
225	0xbba19819	-0.0049314615
226	0xbb2a469b	-0.0025982026
227	0xbbb2c3af	-0.005455456
228	0xbae6d3bf	-0.0017610713
229	0xba54a060	-0.0008111056
230	0xbbc96fc5	-0.006147357
231	0xbbde8fb8	-0.006792035
232	0xbbcd690f	-0.0062686275
233	0xbb974437	-0.004616286
234	0xbba5c7e0	-0.0050592273
235	0xbb5ec0b2	-0.0033989367
236	0xbaaa736d	-0.001300437
237	0xbbc685c1	-0.006058425
238	0xbc0d88ec	-0.008638602
239	0xbc2c101c	-0.010501888
240	0xbc2d6d28	-0.010585107
241	0xbc25e6f4	-0.010125864
242	0xbb79c64a	-0.0038112574
243	0xbb999c7a	-0.004687843
244	0xbb6ce486	-0.0036146953
245	0x3b63513c	0.003468587
246	0xbb8cb646	-0.0042941896
247	0xbb17f8c7	-0.0023189054
248	0x3b806728	0.003918547
249	0x3a904778	0.0011007627
250	0x3b0963bc	0.0020963987
251	0x3aa4b0d8	0.001256491
252	0xbac3f0e4	-0.001494911
253	0xbc5de8df	-0.01354429
254	0xbc85cb11	-0.016332181
255	0xbc6d4e49	-0.014483997
